…
3 -1.262414  0.842875      -0.202130  ...     -0.267624        0.524394   >50K
4 -0.478403 -0.431269       1.284119  ...     -0.267624       -0.573548   >50K

[5 rows x 7 columns]
columns name: ['age' 'fnlwgt' 'education_num' 'capital_gain' 'capital_loss'
 'hours_per_week' 'label']
labels size: (array(['<=50K', '>50K'], dtype=object), array([501, 499]))


Test accuracy: 0.50

Model: "sequential"
┌─────────────────────────────────┬────────────────────────┬───────────────┐
│ Layer (type)                    │ Output Shape           │       Param # │
├─────────────────────────────────┼────────────────────────┼───────────────┤
│ dense (Dense)                   │ (None, 6)              │            42 │
├─────────────────────────────────┼────────────────────────┼───────────────┤
│ dropout (Dropout)               │ (None, 6)              │             0 │
├─────────────────────────────────┼────────────────────────┼───────────────┤
│ dense_1 (Dense)                 │ (None, 8)              │            56 │
├─────────────────────────────────┼────────────────────────┼───────────────┤
│ dropout_1 (Dropout)             │ (None, 8)              │             0 │
├─────────────────────────────────┼────────────────────────┼───────────────┤
│ dense_2 (Dense)                 │ (None, 1)              │             9 │
└─────────────────────────────────┴────────────────────────┴───────────────┘
 Total params: 107 (428.00 B)
 Trainable params: 107 (428.00 B)
 Non-trainable params: 0 (0.00 B)

Cross-validation scores: [0.45   0.4625 0.5    0.6125 0.45  ]

None
Layer: dense, Type: Dense
Layer: dropout, Type: Dropout
Layer: dense_1, Type: Dense
Layer: dropout_1, Type: Dropout
Layer: dense_2, Type: Dense

Test Loss: 0.5189
…
Model Architecture:
TorchModel(
  (fc1): Linear(in_features=11, out_features=6, bias=True)
  (fc2): Linear(in_features=6, out_features=6, bias=True)
  (dropout): Dropout(p=0.3, inplace=False)
  (fc3): Linear(in_features=6, out_features=1, bias=True)
)

Model get prediction..........
[0 0 0 0 0]

> CNN_model.py :

Model: "sequential"
┌─────────────────────────────────┬────────────────────────┬───────────────┐
│ Layer (type)                    │ Output Shape           │       Param # │
├─────────────────────────────────┼────────────────────────┼───────────────┤
│ conv2d (Conv2D)                 │ (None, 26, 26, 32)     │           320 │
├─────────────────────────────────┼────────────────────────┼───────────────┤
│ max_pooling2d (MaxPooling2D)    │ (None, 13, 13, 32)     │             0 │
├─────────────────────────────────┼────────────────────────┼───────────────┤
│ conv2d_1 (Conv2D)               │ (None, 11, 11, 64)     │        18,496 │
├─────────────────────────────────┼────────────────────────┼───────────────┤
│ max_pooling2d_1 (MaxPooling2D)  │ (None, 5, 5, 64)       │             0 │
├─────────────────────────────────┼────────────────────────┼───────────────┤
│ conv2d_2 (Conv2D)               │ (None, 3, 3, 64)       │        36,928 │
├─────────────────────────────────┼────────────────────────┼───────────────┤
│ flatten (Flatten)               │ (None, 576)            │             0 │
├─────────────────────────────────┼────────────────────────┼───────────────┤
│ dense (Dense)                   │ (None, 64)             │        36,928 │
├─────────────────────────────────┼────────────────────────┼───────────────┤
│ dropout (Dropout)               │ (None, 64)             │             0 │
├─────────────────────────────────┼────────────────────────┼───────────────┤
│ dense_1 (Dense)                 │ (None, 10)             │           650 │
└─────────────────────────────────┴────────────────────────┴───────────────┘
 Total params: 93,322 (364.54 KB)
 Trainable params: 93,322 (364.54 KB)
 Non-trainable params: 0 (0.00 B)

Final Training Accuracy: 0.9932
Final Validation Accuracy: 0.9881
Training Loss: 0.0223
Validation Loss: 0.0542

Evaluating model on test set...
Test Set Accuracy: 0.9897

