…
32/32 ━━━━━━━━━━━━━━━━━━━━ 0s 4ms/step - accuracy: 0.8025 - loss: 0.3933 - val_accuracy: 0.7109 - val_loss: 0.6021
Epoch 26/50
32/32 ━━━━━━━━━━━━━━━━━━━━ 0s 4ms/step - accuracy: 0.8165 - loss: 0.3738 - val_accuracy: 0.7188 - val_loss: 0.6141

Cross-validation scores: [0.70625 0.75625 0.76875 0.7     0.7375 ]
Test accuracy: 0.70
Model: "sequential"
┏━━━━━━━━━━━━━━━━━━━━━━━━━━━━━━━━━━━━━━┳━━━━━━━━━━━━━━━━━━━━━━━━━━━━━┳━━━━━━━━━━━━━━━━━┓
┃ Layer (type)                         ┃ Output Shape                ┃         Param # ┃
┡━━━━━━━━━━━━━━━━━━━━━━━━━━━━━━━━━━━━━━╇━━━━━━━━━━━━━━━━━━━━━━━━━━━━━╇━━━━━━━━━━━━━━━━━┩
│ dense (Dense)                        │ (None, 64)                  │             448 │
├──────────────────────────────────────┼─────────────────────────────┼─────────────────┤
│ dense_1 (Dense)                      │ (None, 64)                  │           4,160 │
├──────────────────────────────────────┼─────────────────────────────┼─────────────────┤
│ dropout (Dropout)                    │ (None, 64)                  │               0 │
├──────────────────────────────────────┼─────────────────────────────┼─────────────────┤
│ dense_2 (Dense)                      │ (None, 64)                  │           4,160 │
├──────────────────────────────────────┼─────────────────────────────┼─────────────────┤
│ dropout_1 (Dropout)                  │ (None, 64)                  │               0 │
├──────────────────────────────────────┼─────────────────────────────┼─────────────────┤
│ dense_3 (Dense)                      │ (None, 64)                  │           4,160 │
├──────────────────────────────────────┼─────────────────────────────┼─────────────────┤
│ dropout_2 (Dropout)                  │ (None, 64)                  │               0 │
├──────────────────────────────────────┼─────────────────────────────┼─────────────────┤
│ dense_4 (Dense)                      │ (None, 1)                   │              65 │
└──────────────────────────────────────┴─────────────────────────────┴─────────────────┘
 Total params: 38,981 (152.27 KB)
 Trainable params: 12,993 (50.75 KB)
 Non-trainable params: 0 (0.00 B)
 Optimizer params: 25,988 (101.52 KB)

-------------------------------------------------------------------------------------------------------------------------------
> ANN_model_pt.py
    id   age          job  marital  education default  balance housing loan   contact  day month  duration  campaign  pdays  previous poutcome   y
…
Model Architecture:
TorchModel(
  (fc1): Linear(in_features=11, out_features=6, bias=True)
  (fc2): Linear(in_features=6, out_features=6, bias=True)
  (dropout): Dropout(p=0.3, inplace=False)
  (fc3): Linear(in_features=6, out_features=1, bias=True)
)

Model get prediction..........
[0 0 0 0 0]

> CNN_model.py :

Model: "sequential"
┌─────────────────────────────────┬────────────────────────┬───────────────┐
│ Layer (type)                    │ Output Shape           │       Param # │
├─────────────────────────────────┼────────────────────────┼───────────────┤
│ conv2d (Conv2D)                 │ (None, 26, 26, 32)     │           320 │
├─────────────────────────────────┼────────────────────────┼───────────────┤
│ max_pooling2d (MaxPooling2D)    │ (None, 13, 13, 32)     │             0 │
├─────────────────────────────────┼────────────────────────┼───────────────┤
│ conv2d_1 (Conv2D)               │ (None, 11, 11, 64)     │        18,496 │
├─────────────────────────────────┼────────────────────────┼───────────────┤
│ max_pooling2d_1 (MaxPooling2D)  │ (None, 5, 5, 64)       │             0 │
├─────────────────────────────────┼────────────────────────┼───────────────┤
│ conv2d_2 (Conv2D)               │ (None, 3, 3, 64)       │        36,928 │
├─────────────────────────────────┼────────────────────────┼───────────────┤
│ flatten (Flatten)               │ (None, 576)            │             0 │
├─────────────────────────────────┼────────────────────────┼───────────────┤
│ dense (Dense)                   │ (None, 64)             │        36,928 │
├─────────────────────────────────┼────────────────────────┼───────────────┤
│ dropout (Dropout)               │ (None, 64)             │             0 │
├─────────────────────────────────┼────────────────────────┼───────────────┤
│ dense_1 (Dense)                 │ (None, 10)             │           650 │
└─────────────────────────────────┴────────────────────────┴───────────────┘
 Total params: 93,322 (364.54 KB)
 Trainable params: 93,322 (364.54 KB)
 Non-trainable params: 0 (0.00 B)

Final Training Accuracy: 0.9932
Final Validation Accuracy: 0.9881
Training Loss: 0.0223
Validation Loss: 0.0542

Evaluating model on test set...
Test Set Accuracy: 0.9897

